Cwiczenia/09/6layers/Theta6.npy (npy, 20080 bytes, 1 tensors)

array f4 [500, 10]
000000 9c b2 04 3b 78 ed 5e 3d c4 5a 75 3d 0b 18 34 bc
       0.002024806 0.054425687 0.059901014 -0.01099206
000010 a5 e3 57 bb 90 ac ae bc 59 41 fb 3c 55 9c b1 3c
       -0.0032942083 -0.021322519 0.030670809 0.02168099
000020 d9 0a 3f 3d 93 5c f1 bb 40 ae 3f 3d 59 4d 59 bc
       0.046641205 -0.007365772 0.046797037 -0.01326307
000030 99 8b 2e bd 8b 87 51 bc d8 33 21 bd cb d0 3a 3d
       -0.0426136 -0.012788664 -0.039356083 0.045609277
000040 f5 64 0b bd a0 81 99 bb b5 c2 b1 bc 20 ff ff 3c
       -0.034031827 -0.004684642 -0.021699289 0.031249583
000050 7f 23 01 bd 21 f8 49 3c bd c3 fd ba 78 fa 1a bd
       -0.031527992 0.012327225 -0.0019360703 -0.037836522
000060 6e 47 25 3d e3 45 1c bd 21 0e 0e 3d ca f9 1b bb
       0.040351324 -0.038152587 0.034681443 -0.002380001
000070 30 62 6e bc e5 f1 81 bc b4 4f a4 3d f0 a7 31 3d
       -0.014549777 -0.015862415 0.08023015 0.04337305
000080 80 5a 01 bc d0 3c 5e 3b 74 7a 06 bd 7d 5d 81 3d
       -0.007895112 0.0033910759 -0.032831624 0.063166596
000090 50 bb 9b bc 6f 62 a8 3c 2c b9 66 3c 7a 9c 5e 3d
       -0.019010216 0.02055475 0.014082234 0.054348446
0000a0 df 83 b3 3c 3e 8f 58 bd 7c 12 30 bd 22 60 0d bd
       0.021913467 -0.05287098 -0.042986378 -0.034515508
0000b0 4c 63 28 3d 4e 4f f9 3c 96 fd ae bc c3 cf c7 bc
       0.041110322 0.030433323 -0.021361154 -0.02439106
0000c0 c8 8c 86 bc a4 72 09 bd a7 83 60 bc 0d 21 cf bb
       -0.016424552 -0.033556595 -0.013703263 -0.0063210786
0000d0 cc c6 c7 3c f7 5c 84 bc af 18 a0 3c c8 4e c1 3c
       0.024386786 -0.01615761 0.01954302 0.023597136
0000e0 bc ce cd 3c 4e bb 9c 3c 82 23 e0 3c e0 48 1a 3d
       0.025122993 0.019132283 0.027360681 0.037667155
0000f0 ee 95 13 bd 5b 6f 73 bd fe 37 11 3d c3 44 96 bc
       -0.036031656 -0.05943237 0.03545379 -0.018343335
000100 b6 b7 1f bd 36 d9 8a bc d7 6c 6b bd 01 11 c5 39
       -0.03899356 -0.016949277 -0.057476845 0.00037587437
000110 c4 09 7d bc a4 36 cb bc 45 c4 bf 3c 9d a1 4d bd
       -0.015444223 -0.024806328 0.023409018 -0.050202955
000120 7f 0f 35 bd a1 b8 24 3d 5f 52 10 bd bf d8 1b bb
       -0.04420423 0.04021514 -0.035234805 -0.0023780314
000130 c2 22 e5 3b 63 38 15 bd 77 1d cf 3c 96 7c 3b 3c
       0.006992669 -0.036430728 0.025282605 0.011443278
000140 1d 72 d2 3b 63 2d 2d bd a8 0f 60 bc 96 f7 31 3c
       0.006422295 -0.042279612 -0.013675608 0.010862252
000150 e8 79 68 3d a7 64 12 3d 28 3c 80 bb af 72 d7 39
       0.056756884 0.03574052 -0.003913421 0.00041093442
000160 2b 23 e2 bc 54 37 4b 3d 13 34 68 bd b3 35 75 bd
       -0.02760466 0.049613312 -0.056690287 -0.059865665
000170 2f b9 17 3d a5 6c ec bb 92 02 c3 3a a8 bb 66 bd
       0.03704184 -0.0072151 0.0014878085 -0.056331307
000180 a4 36 2b bd 67 08 dc 3c 8f af 68 3a dd dd a8 bc
       -0.041800156 0.026859475 0.0008876258 -0.020613605
000190 ac b8 8e bd 60 07 12 3d 52 85 4a bd 97 58 69 bd
       -0.06968817 0.035651565 -0.04944355 -0.05696925
0001a0 96 db a1 bd 39 82 17 bb c9 82 9a bb c4 b7 3d bd
       -0.07903211 -0.002311839 -0.004715298 -0.04631783
0001b0 99 e8 46 3c ce 36 ab bc ed 06 20 bd d7 e9 12 3d
       0.012140417 -0.020900156 -0.039069105 0.03586754
0001c0 ae 2d d4 bb fe 8b 8a bc 2d a1 44 3d 8e 95 a0 3c
       -0.006475172 -0.016912457 0.04800527 0.019602563
0001d0 68 cb 01 3d de a2 16 bd 2c 42 ab bb d4 0b b6 3c
       0.031688124 -0.036776416 -0.005226394 0.022222437
0001e0 a9 78 3c 3d f9 52 1e 3d 9a 8c 20 3d 79 98 e4 bc
       0.046013508 0.038653348 0.039196588 -0.027904736
0001f0 a9 c8 a2 bc 73 93 80 3c b8 63 2e bd a6 e4 08 3d
       -0.019871073 0.01569531 -0.042575568 0.03342118
000200 87 66 0b bd 74 b7 89 3d 6b 8b 74 3c d4 9a fe ba
       -0.034033325 0.06724444 0.014925818 -0.0019424804
000210 9d 47 77 bd a2 7d 2b bd 1c 96 f3 bc ee 17 44 3c
       -0.06037103 -0.04186786 -0.029734664 0.011968596
000220 f0 5a 4c bd b4 23 cd 3b 55 a9 68 bd d2 ae 08 3b
       -0.049891412 0.0062603597 -0.056802113 0.0020856154
000230 08 75 9a bb de 40 04 3c ec 1b 07 bd 35 15 47 3a
       -0.0047136582 0.008072106 -0.032985613 0.00075944077
000240 d2 0e b3 3c c3 a3 01 bc 28 4e 29 bd 08 8c f6 3c
       0.021857653 -0.007912579 -0.0413343 0.030096069
000250 7a 88 ec bc 25 71 0d bd 04 01 f7 3c 66 fb 08 3c
       -0.02887367 -0.03453173 0.030151851 0.008360719
000260 80 07 aa bc 70 2e 96 bc 36 d6 95 3d 17 77 8a 3c
       -0.02075553 -0.01833269 0.07316248 0.01690249
000270 8a 12 9a 3d b3 26 e4 bc 62 8c 41 3d 58 b2 8e 3d
       0.07523067 -0.027850484 0.04725302 0.0696761
000280 45 3a 12 bd c7 4e 2f bd 75 35 92 bc 08 ef ef bb
       -0.0357001 -0.042799737 -0.017847756 -0.007322196
000290 1a 5a f4 3b b8 b4 89 bd cc 7a 76 bb 20 28 10 bc
       0.00745703 -0.067239225 -0.0037609814 -0.008798629
0002a0 70 06 00 bd 13 64 d3 bc 14 2a a7 3c ad a3 03 bd
       -0.03125614 -0.025804555 0.020405807 -0.032138515
0002b0 38 e3 02 3d f6 18 7e 3d 4c 6f df bb 0f 25 24 3d
       0.031954974 0.062035523 -0.0068186875 0.040074404
0002c0 e8 ce a6 bd 6a 3d 17 3c c7 f0 e0 bc fa 96 e2 3c
       -0.08144933 0.009230951 -0.027458562 0.027659882
0002d0 6d a6 ae bc 4c b5 f8 bc d6 cb 2a bd 0c 23 80 bd
       -0.021319592 -0.030359887 -0.0416983 -0.06256685
0002e0 97 dd 04 bd 00 23 8b 3c d3 97 9a 3c 51 70 30 3c
       -0.032437887 0.016984463 0.018871224 0.010768966
0002f0 8b f6 69 bd c7 20 41 bc 7c 2b 45 bd f1 06 01 bd
       -0.057119887 -0.0117876 -0.048137173 -0.03150076
000300 03 65 e3 bc e5 12 57 bd 60 49 6c 3c 62 09 61 bd
       -0.027758127 -0.052508254 0.014421791 -0.05494059
000310 87 9a 8a bd f6 2c 07 3d 88 e2 76 bd 40 b0 2f bc
       -0.06767755 0.033001862 -0.06027463 -0.010723174
000320 08 4c 27 bd 48 76 0f 3d 12 36 60 ba c0 b1 03 3d
       -0.040843993 0.03502491 -0.0008552979 0.032151937
000330 05 a6 00 3d 5c 83 30 3c 8c 6a 9b bc b6 71 5e bd
       0.03140833 0.010773506 -0.018971704 -0.054307662
000340 6b 72 b3 bc 86 c4 a3 3c d2 4e 12 bc ce 3a 80 bc
       -0.021905145 0.01999117 -0.008929925 -0.01565304
000350 7f 81 15 bc 76 13 ab 3c ec 62 3e 3d ff f8 d9 bc
       -0.009125113 0.020883303 0.046481058 -0.026607988
000360 4c c1 31 bc f5 81 14 bd 2f c7 27 bd 88 13 3c 3d
       -0.010849308 -0.03625675 -0.04096144 0.045917064
000370 68 95 7e bd b5 e1 af bc 28 cc bb 3c c5 4f 14 bd
       -0.062154204 -0.02146993 0.022924498 -0.036208887
000380 ef 0b fc bb 17 f1 9a bc 30 15 41 bd ec a4 17 bb
       -0.0076918523 -0.018913789 -0.047139347 -0.0023139073
000390 bd 60 c5 3c a6 bd b5 bb 38 a7 2e 3d d4 e2 f7 bc
       0.02409398 -0.0055462895 0.04263994 -0.030259527
0003a0 ee 18 d9 3b de 39 7d 3c 3d 41 ab 3b 29 5f 1f 3d
       0.0066252863 0.015455691 0.005226283 0.03890911
0003b0 fe 12 1e bd 8c 68 36 bc b2 42 5d 3d af b9 63 3d
       -0.03859233 -0.011133324 0.054018684 0.055597004
0003c0 bd 45 84 bb 6d fc 8a bc 69 0b 82 bd 30 cc f7 bc
       -0.0040366338 -0.01696607 -0.063498326 -0.030248731
0003d0 d1 84 c3 3c 6f a4 20 bd 10 5e 83 3c f9 85 e6 bc
       0.023867043 -0.039219316 0.016036063 -0.028140055
0003e0 f9 7d c7 3b 3b c6 4b 3c 48 8f 1d bb 06 83 31 bb
       0.006088015 0.012437399 -0.00240417 -0.0027086153
0003f0 b5 36 09 bd b6 a4 2a bd f5 71 80 3d 48 54 01 3d
       -0.03349944 -0.041660987 0.062717356 0.031574517
